pytorch-mnist/model/mnist_nn.pt (torch, 439909 bytes, 6 tensors)

fc1.weight f4 [128, 784]
0	0x3c544368	0.012955524
1	0x3c37dc88	0.011222012
2	0xb993f730	-0.00028222194
3	0x3ab90aec	0.0014117635
4	0xbcd3dbaf	-0.02586159
5	0x3cfb1e7e	0.030654188
6	0x3bc6d371	0.0060676862
7	0x3a89e3a2	0.001052011
8	0xbcf02bac	-0.0293177
9	0x3c5832f6	0.013195744
10	0x3b93f3df	0.0045151557
11	0xbabf9f98	-0.0014619706
12	0x3c9abd26	0.018889021
13	0x3c2f7dff	0.010711192
14	0x3d034300	0.032046318
15	0xbca1672f	-0.019702522
16	0x3cac54bb	0.021036496
17	0x3c3e611f	0.011619835
18	0xba1af0f4	-0.00059105386
19	0xbb6c4af9	-0.003605543
20	0xbceb09f8	-0.028691277
21	0x3cd90959	0.026493715
22	0x3c103ff7	0.008804313
23	0xbaf1716d	-0.0018420644
24	0xbd0332b2	-0.03203077
25	0xbc456f27	-0.012050427
26	0x3bfbc7fc	0.007683752
27	0xbc864195	-0.016388694
28	0xbc882bcf	-0.016622452
29	0x3cc7cf32	0.02439079
30	0xbca4ebac	-0.020131908
31	0x3d0cae57	0.03434595
32	0x39ea847d	0.0004473067
33	0xbc0b0530	-0.0084851235
34	0x3d15927a	0.036516644
35	0xbcd9b719	-0.026576566
36	0xbc7ecc1e	-0.015551595
37	0x3d14c518	0.036320776
38	0x3d0d7707	0.03453734
39	0x3cddfb39	0.027097331
40	0x3ca1abf4	0.019735314
41	0xbcef4719	-0.029208707
42	0xba6d28f6	-0.0009046936
43	0xbc1ea00b	-0.009681712
44	0x3c9276e3	0.017878955
45	0xbbd1cfd1	-0.0064029475
46	0x3c85bc2b	0.016325077
47	0xbcdf3ea1	-0.027251543
48	0x3c0737df	0.008253067
49	0xbccb46e0	-0.02481407
50	0xbc35764b	-0.0110755665
51	0x3bce6e11	0.006299742
52	0xbb56218d	-0.0032673806
53	0xbb37e220	-0.0028058365
54	0x3d000d9d	0.031262983
55	0x3c20ddd2	0.009818511
56	0xbadc9f07	-0.0016832062
57	0xbcf1a530	-0.029497713
58	0x3c88bf36	0.016692739
59	0x3cb9b11b	0.022667458
60	0x3cd50409	0.0260029
61	0xbcdf3ee1	-0.027251663
62	0x3cd102e9	0.025514083
63	0xbc276b2a	-0.010218421
64	0xbcf93b73	-0.030423855
65	0x3ca573a6	0.020196747
66	0xbcbc05bd	-0.022951955
67	0x3c4b12ca	0.012394616
68	0xbbb3f464	-0.00549178
69	0xbbb8a524	-0.0056349207
70	0xbccb978f	-0.024852542
71	0xbd0339c3	-0.032037508
72	0x3c47056d	0.01214729
73	0x3d1e3580	0.03862524
74	0x3b1aacf2	0.0023601619
75	0xbcb8bc0b	-0.022550603
76	0x3ce62170	0.028092116
77	0x3c4c81d5	0.012482126
78	0xbc096967	-0.008386946
79	0x3cffda4c	0.031232022
80	0xbc5db8a3	-0.01353279
81	0x3af78514	0.0018884265
82	0x3cb3a920	0.021931231
83	0xbb8b7851	-0.004256286
84	0xbcf4ec06	-0.029897701
85	0xbbc809b4	-0.0061046723
86	0xbce710a5	-0.028206179
87	0xbb0f0498	-0.0021822806
88	0x3c8b191f	0.016979752
89	0xba20c74e	-0.00061332143
90	0x3ce4c0b4	0.02792392
91	0xbbd6c38f	-0.006554074
92	0x3ccd0637	0.025027378
93	0x3ca9bed4	0.020720877
94	0x3c24dc84	0.010062341
95	0x3c86a624	0.016436644
96	0x3ad1fc95	0.001602071
97	0x3cc35d19	0.023848103
98	0xbcf72da2	-0.030173127
99	0xba5167a3	-0.00079881604
100	0xbcd37300	-0.025811672
101	0x3caa57a4	0.020793743
102	0xbcace8fa	-0.021107186
103	0x3c833af3	0.01601932
104	0x3b4616d7	0.0030226016
105	0xbcc9c538	-0.024630174
106	0x3c963497	0.018335624
107	0xbc2e9f53	-0.010658103
108	0x3a147029	0.0005662465
109	0xbb17805f	-0.0023117287
110	0xbc97c864	-0.01852817
111	0x3aed17ef	0.0018088798
112	0x3d18c2b4	0.03729506
113	0x3d09c360	0.03363359
114	0x3cacd9b4	0.021099903
115	0x3c58ff58	0.013244472
116	0xbc989787	-0.018626941
117	0x3c6574fd	0.014004943
118	0x3c4e581b	0.012594248
119	0xbb6258bc	-0.0034537753
120	0xbd1a92a8	-0.03773752
121	0xbd3ba2b9	-0.04580948
122	0xbd0001e9	-0.03125182
123	0x3c7cbf18	0.01542642
124	0x3c22aaae	0.0099283885
125	0xbce5d056	-0.028053444
126	0x3d15f101	0.036606792
127	0x3c62e86e	0.013849361
128	0x3cda0835	0.026615242
129	0x3d2f8c9b	0.0428587
130	0xbc73fc41	-0.014891685
131	0x37a5df9a	1.9773655e-05
132	0x3d2f260d	0.042760897
133	0x3b3d34a1	0.002887048
134	0xb8d31757	-0.000100656114
135	0x3d054678	0.032537907
136	0x3cc22897	0.023700995
137	0xbcabf70c	-0.020991825
138	0x3b9e26ad	0.004826388
139	0xbc6ca7b9	-0.014444285
140	0xbcde0a51	-0.027104529
141	0x3d0fa95a	0.035073616
142	0x3c9d3dbf	0.019194482
143	0xbb8c8e98	-0.0042894594
144	0x3a9ef801	0.0012128354
145	0xbc51761e	-0.012784509
146	0xbcfe1ace	-0.03101864
147	0x3c80f096	0.01573972
148	0xbceb5ac0	-0.028729796
149	0xbd14af15	-0.036299784
150	0xbd00a232	-0.03140468
151	0xbcff73e4	-0.03118319
152	0x3ce2b599	0.027674483
153	0x3cb3212f	0.02186641
154	0x3c03ebe0	0.008051842
155	0x3d3abcc9	0.045590196
156	0x3ae54717	0.00174925
157	0xbb6e7b37	-0.003638936
158	0xbc7e1d6c	-0.015509944
159	0xbbbe18e5	-0.0058013075
160	0x3d4a3d65	0.049374957
161	0x3b014b59	0.0019728749
162	0x3b9ee307	0.004848841
163	0x3c382f81	0.011241795
164	0x3beed7b6	0.0072888983
165	0xbcd705fd	-0.026247973
166	0xbcd9591f	-0.026531754
167	0x3c8beaca	0.01707973
168	0x3ccff655	0.025386015
169	0x3c3cf8a0	0.011533886
170	0x3d136097	0.035980787
171	0xbbe92637	-0.0071151513
172	0xbca543f7	-0.02017401
173	0xbb0cb3e0	-0.0021469519
174	0xbcc77054	-0.024345554
175	0xbd3a5825	-0.045494217
176	0xbc5f4dd4	-0.0136293955
177	0xbd40c460	-0.047062278
178	0xbd5fc197	-0.05462798
179	0x3c8627aa	0.016376335
180	0x3c81c915	0.015842954
181	0xbcc79b72	-0.024366114
182	0x3c22e0d5	0.009941299
183	0x3cfc5af5	0.03080509
184	0x3c1af59e	0.009457974
185	0x3c2f177a	0.01068675
186	0x3c27f160	0.010250419
187	0x3d1b57a9	0.037925396
188	0x3cbf36f9	0.023341643
189	0x3bd720d4	0.0065651927
190	0x3baa166a	0.0051906602
191	0xbcafd885	-0.02146555
192	0x3c23078c	0.00995053
193	0xbcd98953	-0.02655474
194	0xbcd92ee8	-0.026511624
195	0xbcf22ca0	-0.029562294
196	0x3ca63372	0.020288203
197	0xbc1931ea	-0.009350279
198	0xbc8a905b	-0.016914537
199	0xbc57fd5b	-0.013182963
200	0xbcabde51	-0.020980032
201	0x3ceb5904	0.02872897
202	0x3bb20b46	0.005433473
203	0xbbbdff53	-0.0057982593
204	0xbb6a921d	-0.0035792657
205	0xbd589868	-0.05287972
206	0x3beb6fe3	0.007184969
207	0xbc4cdc3f	-0.012503683
208	0x3c6f2f67	0.014598704
209	0xbcc3c43b	-0.02389728
210	0x3d07a32c	0.033114597
211	0x3bbeca66	0.0058224676
212	0xbc5d6c89	-0.013514646
213	0xbcb9614d	-0.022629404
214	0xbb58c60e	-0.0033077034
215	0xbbe2223a	-0.006901053
216	0x3ae52db7	0.0017484938
217	0x3cbf1049	0.023323195
218	0xbcdde2a4	-0.02708561
219	0x3d19b1a6	0.037522934
220	0x3c273682	0.010205867
221	0xbcdf14ba	-0.027231563
222	0xbc450cc4	-0.012026969
223	0xbcad642b	-0.021165928
224	0x3caa4990	0.02078703
225	0x3cadfe84	0.021239527
226	0x3ba0c349	0.0049060923
227	0xbc047a19	-0.008085751
228	0x3b9b887e	0.0047464957
229	0x3c6df12c	0.014522832
230	0xbd1d7010	-0.03843695
231	0xbd7e6aa1	-0.062113408
232	0xb9d7c575	-0.00041155113
233	0xbd710e03	-0.058851253
234	0xbce3bdfd	-0.027800554
235	0x3c47e93a	0.012201602
236	0x3c8fbbb7	0.017545564
237	0x3cc16750	0.023608834
238	0x3c8403bd	0.016115064
239	0xbc92b0d5	-0.017906586
240	0xbc8dee68	-0.017325595
241	0x3caede59	0.021346258
242	0xbcea9613	-0.028636014
243	0xbcd94769	-0.026523309
244	0xbc792172	-0.015205728
245	0x3cf0815c	0.029358558
246	0xbd09afb5	-0.033614833
247	0x3c58dd7a	0.013236398
248	0xbc30918f	-0.010776891
249	0x3c2a1372	0.010380613
250	0xbb4bebdd	-0.0031115927
251	0x3cdd007c	0.02697777
252	0x3c2b3c33	0.010451364
253	0x3c3cd310	0.011524931
254	0x3ccffaf1	0.025388213
255	0xbcf9579d	-0.030437285

fc1.bias f4 [128]
0	0x3c142688	0.00904239
1	0xbb43d0f3	-0.0029879182
2	0xbc7a6a81	-0.015284182
3	0xbcf9de42	-0.030501489
4	0x3c144d92	0.009051697
5	0xbd09e27c	-0.033663258
6	0x3c989bc5	0.018628964
7	0xbcfc4a3e	-0.03079712
8	0xbc914adb	-0.01773589
9	0xbc0cc913	-0.008592862
10	0xbc30602a	-0.010765115
11	0x3b0d3fc4	0.00215529
12	0xbcb95bc6	-0.022626769
13	0x3d0f292c	0.034951374
14	0xbcd17f5d	-0.025573427
15	0xbcb4e984	-0.022084005
16	0x3cf1d66a	0.029521186
17	0xbcdc3a2e	-0.026883211
18	0xbc4a0f1f	-0.012332707
19	0xbc19e070	-0.009391889
20	0xbbf92f2a	-0.0076044993
21	0xba9fc614	-0.0012189769
22	0xbc6bc06a	-0.014389137
23	0xbbf4c1c0	-0.007469386
24	0xbc848958	-0.016178772
25	0x3d17d693	0.03706987
26	0xbc881c32	-0.016615007
27	0x3c7e70ff	0.01552987
28	0x3b5c6477	0.0033629218
29	0x3c713e59	0.0147243375
30	0x3c5b2a8d	0.013376844
31	0x3b5737ee	0.0032839733
32	0xbc3d65a2	-0.011559876
33	0x3c0c0c75	0.008547892
34	0x3ceb802e	0.028747644
35	0xbbf57eca	-0.007491921
36	0xbd083708	-0.033255607
37	0x3c814745	0.015781054
38	0x3c84b91e	0.016201552
39	0x3c320a76	0.010866752
40	0x3d09e72f	0.03366774
41	0xbbbea52b	-0.0058180294
42	0xbc6e981f	-0.014562636
43	0x3b8ae76c	0.0042390134
44	0xbcd33cd6	-0.025785845
45	0x3c017f56	0.007903894
46	0x3ce55510	0.027994663
47	0x3c14c1a4	0.009079371
48	0x3bd99f3b	0.006641296
49	0xbc8ea1a9	-0.01741107
50	0x3cfdaff4	0.03096769
51	0xbd07e08d	-0.033173133
52	0x3ca26e99	0.019828128
53	0xbcd53520	-0.026026309
54	0xba01eb50	-0.0004956024
55	0xbd0564e7	-0.03256693
56	0x3c297102	0.010341885
57	0xbc5c4aba	-0.013445551
58	0x3caed60a	0.021342296
59	0xbbe7fc4e	-0.0070796376
60	0x3c924636	0.017855745
61	0x3ccec86f	0.025242059
62	0x3cd44de0	0.02591604
63	0x3c4365d1	0.01192613
64	0x3d02cf5b	0.03193603
65	0x3c0fb2ad	0.008770627
66	0xbba16e35	-0.004926468
67	0x3c80a662	0.015704338
68	0x3b068971	0.0020528699
69	0x3bd35b4c	0.0064500924
70	0x3d0c321c	0.034227476
71	0x3ce1d1b2	0.02756581
72	0xbc8ec300	-0.017426968
73	0xbd0daff2	-0.034591623
74	0x3cc08b84	0.023504026
75	0xbd08ca06	-0.03339579
76	0x3c269702	0.010167839
77	0x3d0d709f	0.034531232
78	0xbc75626a	-0.014977077
79	0xbc90c77a	-0.017673243
80	0x3a2e496e	0.0006648515
81	0x3baea0eb	0.0053292415
82	0x3c53389c	0.012891915
83	0xbb015f67	-0.0019740702
84	0xbc02fb3c	-0.007994469
85	0x3c80d008	0.015724197
86	0xbcc515b6	-0.024058204
87	0x3cddccf7	0.027075274
88	0x3c19a97b	0.009378786
89	0xbcd59aa7	-0.02607472
90	0x3b1d6baf	0.0024020483
91	0x3d10229d	0.03518926
92	0xbb895cca	-0.0041919695
93	0x3cc1b749	0.023646967
94	0x3b96eb9c	0.0046057235
95	0x3c5c1759	0.013433301
96	0x3bfa6180	0.0076410174
97	0x3ca5714b	0.020195624
98	0xbbf43762	-0.007452891
99	0x3d00266c	0.031286642
100	0x3cee7aac	0.029111229
101	0xbca9659f	-0.02067834
102	0x3cf30256	0.0296642
103	0x3c454558	0.012040459
104	0x3ccbb386	0.024865877
105	0xbce0eef8	-0.0274577
106	0x3cf913dc	0.030404978
107	0xbc786822	-0.015161546
108	0x3d101bd5	0.035182793
109	0xbc9a2447	-0.018816127
110	0x3be0ae1f	0.0068566944
111	0xba98ac39	-0.0011648006
112	0xbca4ad54	-0.02010218
113	0xbc88e416	-0.016710322
114	0x3ca052fe	0.019570824
115	0x3b288ab9	0.002571745
116	0x3d0348d5	0.03205188
117	0x3bb01c1d	0.005374445
118	0x3cab40be	0.020904895
119	0x3c87c8fd	0.01657533
120	0xbc958f58	-0.018256828
121	0xbd034def	-0.032056745
122	0x3c0dbccd	0.008650971
123	0x3c5214e3	0.012822363
124	0x3d117e90	0.03552109
125	0xbbef21ad	-0.0072977156
126	0xbcd12b0d	-0.025533224
127	0xbd041674	-0.032247975

fc2.weight f4 [64, 128]
0	0x3e1f5d9f	0.15563057
1	0xbd735416	-0.059406362
2	0xbda0a9e6	-0.078449056
3	0x3d3b90b2	0.04579229
4	0xbdcec95a	-0.100969985
5	0x3cdbc4f4	0.026827313
6	0xbd832765	-0.06403998
7	0x3dd18c74	0.102318674
8	0x3d032761	0.032019977
9	0xbdced547	-0.10099273
10	0x3ca246bf	0.019809125
11	0x3b305961	0.0026908743
12	0x3dfc9586	0.12333207
13	0xbd465fdd	-0.048431266
14	0xbd44f564	-0.048085585
15	0x3c1a4ed7	0.009418211
16	0x3d83868d	0.06422148
17	0xbd55f6dc	-0.052237377
18	0x3cd53615	0.026026765
19	0xbde58413	-0.11206832
20	0xbc551f3f	-0.013007938
21	0x3dec4cb7	0.1153807
22	0xbdda7bbb	-0.10668131
23	0x3e237baa	0.15965143
24	0xbd5ca035	-0.053863723
25	0x3d60701b	0.054794412
26	0x3dcef43a	0.10105176
27	0x3d363c8f	0.044491347
28	0x3cdd31ec	0.027001344
29	0x3deb4e30	0.114895225
30	0xbcbcd8ca	-0.023052592
31	0x3d588398	0.052859873
32	0xbd9908d1	-0.07472385
33	0x3d9cac27	0.07650023
34	0xbd1711e2	-0.03688229
35	0xbd23c4b5	-0.039982516
36	0xbdac581e	-0.084152445
37	0x3e10e76a	0.14150777
38	0x3d31a5ed	0.04337113
39	0xbc130e82	-0.008975627
40	0x3d31f729	0.0434486
41	0x3d9f1c70	0.07769096
42	0xbccdcd44	-0.025122292
43	0xbc73dc7f	-0.014884113
44	0xbbf009c9	-0.007325385
45	0x3dca2440	0.098701954
46	0xbe0dd886	-0.13852128
47	0x3d0a1146	0.03370788
48	0x3e0b8ec5	0.13628681
49	0x3d196dd5	0.03745826
50	0x3d8e19f4	0.06938544
51	0x3e051e93	0.12999944
52	0xbe112f7b	-0.14178269
53	0x3d046f96	0.03233298
54	0xbce6d714	-0.02817873
55	0xbc62f1e6	-0.013851618
56	0x3e00324a	0.12519184
57	0x3db63c78	0.08898252
58	0x3d801637	0.06254237
59	0x3c0771f8	0.008266918
60	0xbd823f07	-0.06359678
61	0x3cc7f0ca	0.02440681
62	0x3bbdc3c4	0.0057911593
63	0x3d0c8c94	0.034313753
64	0x3dec04a7	0.11524325
65	0xbe0cdaad	-0.13755293
66	0xbc9f2bd0	-0.019430071
67	0x3c7180ba	0.014740163
68	0x3d94ba91	0.07262147
69	0xbd2cdc35	-0.042202193
70	0x3e2e7a6b	0.17038886
71	0x3d4c5a01	0.049890522
72	0xbd03d3d1	-0.032184426
73	0x3dfb0e39	0.12258572
74	0xbd29f0ca	-0.0414894
75	0x3d524d12	0.05134303
76	0x3d48270d	0.048865367
77	0xbcc444d1	-0.023958595
78	0x3c1f07c1	0.0097064385
79	0xbc9fadee	-0.019492116
80	0xbda2afc5	-0.07943682
81	0x3e1a77e7	0.15084802
82	0xbd00117b	-0.03126667
83	0xbd834ecf	-0.06411516
84	0xbcdc57f6	-0.026897412
85	0x3d0467b8	0.032325476
86	0xbb7baf7c	-0.0038404157
87	0x3d8bc506	0.068246886
88	0x3cfd71f3	0.030938124
89	0x3d42df03	0.04757596
90	0x3cd378a9	0.025814371
91	0x3c57a67d	0.0131622525
92	0xbce9c3a0	-0.028535664
93	0xbbcb08d4	-0.0061961208
94	0x3ccf2edc	0.025290899
95	0xba10ed4b	-0.00055285235
96	0xbd992c2f	-0.074791305
97	0xbdb7081d	-0.08937094
98	0x3dbc431a	0.09192486
99	0xbd2c9117	-0.042130556
100	0x3da249b9	0.07924218
101	0xbd971456	-0.07376926
102	0x3dab382c	0.08360323
103	0xbdac340e	-0.08408366
104	0x3dae8b8c	0.0852271
105	0x3b095fcd	0.0020961643
106	0x3d911fab	0.07086118
107	0xbd33dbf3	-0.04391093
108	0x3d8fb8b6	0.07017653
109	0x3d31244d	0.04324751
110	0x3dae8b33	0.08522644
111	0x3c94be51	0.018157156
112	0x3d652923	0.055947434
113	0xbd6c3d41	-0.057675604
114	0xbd610a4e	-0.054941468
115	0x3cb8c858	0.022556469
116	0x3d7bb66e	0.061453275
117	0xbd9e5fb3	-0.07733097
118	0x3e184c74	0.14872915
119	0xbe004ceb	-0.12529342
120	0xbdfdef67	-0.12399178
121	0x3d581239	0.052751753
122	0xbdd7879d	-0.10523913
123	0xbc90b164	-0.017662711
124	0xbd8f45b2	-0.06995715
125	0x3c3725d4	0.0111784525
126	0xbdca9291	-0.098912366
127	0x3bbf190d	0.0058318437
128	0xbcb307aa	-0.02185424
129	0x3d5b1cd9	0.05349431
130	0xbdc03746	-0.093855426
131	0x3da2b1db	0.079440795
132	0xbd219f1c	-0.03945838
133	0xbd3f7979	-0.046746705
134	0x3d9f4620	0.07777047
135	0x3da69faa	0.08135922
136	0x3d5776a6	0.052603386
137	0x3d0f75ba	0.035024382
138	0x3cbe1fb5	0.023208478
139	0x3d05b87f	0.032646652
140	0x3d934f3f	0.07192849
141	0x3d22cf8c	0.039748713
142	0x3cda490d	0.026646161
143	0xbd59cf11	-0.05317599
144	0xbdb59649	-0.08866555
145	0xbd16a753	-0.036780667
146	0xbd68de34	-0.056852534
147	0xbdbae40c	-0.09125528
148	0xbcda7b95	-0.026670257
149	0xbdbc1c29	-0.091850586
150	0x3d5d75f5	0.05406757
151	0x3d44d557	0.04805502
152	0xbcffc84a	-0.031223435
153	0xbd2b467f	-0.041815277
154	0x3dd15165	0.10220603
155	0x3d968be5	0.073509015
156	0xbdda3811	-0.10655225
157	0x3d9b3f56	0.0758044
158	0x3c30830f	0.010773434
159	0x3c46ca9a	0.012133265
160	0x3d91ec5d	0.07125161
161	0x3cf664f8	0.030077443
162	0xbd9ab442	-0.07553913
163	0xbd444884	-0.04792072
164	0x3d2ab978	0.041680783
165	0x3da55f50	0.0807482
166	0xbcc18aa7	-0.023625685
167	0x3d61864c	0.055059716
168	0x3c1ab329	0.009442129
169	0x3da61a47	0.08110481
170	0x3c649fcf	0.013954117
171	0x3c3b2ebe	0.011424718
172	0x3db0442e	0.08606754
173	0x3cedb1c9	0.029015439
174	0xbd61158b	-0.054952186
175	0x3e1ba038	0.15197837
176	0xbdc967ff	-0.09834289
177	0xbdaa33d2	-0.08310665
178	0xbc8c55d0	-0.017130762
179	0x3d61d37d	0.05513333
180	0x3df9db82	0.12200071
181	0xbc8b3880	-0.016994715
182	0xbca9023b	-0.020630946
183	0x3dae3746	0.08506636
184	0xbd826f06	-0.06368832
185	0x3d9cde9d	0.076596476
186	0x3e2161ab	0.15759914
187	0x3d2ff9e1	0.042962912
188	0x3d4d63e2	0.050144084
189	0xb9b99563	-0.00035397251
190	0xbdb19170	-0.08670318
191	0x3d3ad1bf	0.045610186
192	0x3d72f43d	0.059314955
193	0xbdc85b68	-0.09783059
194	0x3d7362e3	0.059420478
195	0xbcf48a04	-0.029850967
196	0xbd229251	-0.03969032
197	0xbdb3eb7b	-0.08785149
198	0xbdcfab4d	-0.10140095
199	0x3c791fd4	0.015205342
200	0x3d017f5e	0.031615607
201	0x3ddbacb9	0.107263036
202	0xbd836ba2	-0.06417014
203	0x3db55dac	0.08855757
204	0x3d666924	0.056252614
205	0x3d08fac0	0.03344226
206	0xbd1c458b	-0.03815226
207	0x3cfa6c26	0.030569147
208	0xbbfa3bb8	-0.0076365136
209	0x3d2af1d8	0.041734546
210	0xbdc27db8	-0.09496635
211	0x3d6f343a	0.058399417
212	0xbd963392	-0.07334055
213	0x3d014e69	0.03156892
214	0x3d16524b	0.036699574
215	0xbe06c344	-0.13160425
216	0xbdec43c5	-0.115363635
217	0x3c8979d0	0.016781718
218	0xbdab87d0	-0.083755136
219	0x3d6490e4	0.05580224
220	0xbd8412e3	-0.06448915
221	0xbd7fdca7	-0.06246629
222	0xbc95637d	-0.018235916
223	0xbd6e91e2	-0.058244593
224	0xbd01c9bf	-0.03168654
225	0x3da59b7e	0.080862984
226	0x3d94ca35	0.072651304
227	0x3ce3958f	0.027781276
228	0x3d4a0b6e	0.049327306
229	0x3d941027	0.07229643
230	0x3da77e18	0.08178347
231	0xbdd9e0c2	-0.10638572
232	0xbd737506	-0.059437774
233	0xbd2ef5ff	-0.04271507
234	0xbd790f25	-0.06080546
235	0x3c7d7ec0	0.015472114
236	0xbd126150	-0.035737336
237	0x3c831787	0.01600243
238	0x3d72dc6f	0.059292253
239	0x3dd3a618	0.10334414
240	0xbd83c6fa	-0.06434436
241	0x3d60d588	0.05489114
242	0x3e0b4dae	0.13603851
243	0x3d7b78c9	0.061394487
244	0xbd72a572	-0.059239812
245	0xbdb5b761	-0.088728674
246	0x3e197e2c	0.14989537
247	0xbd8846ab	-0.06654104
248	0x3adc35ba	0.001680068
249	0xbd77abd1	-0.06046659
250	0xbd1413ac	-0.036151573
251	0x3cfc6589	0.030810134
252	0xbdc70b7a	-0.09718986
253	0xbb9fe4f7	-0.0048795897
254	0xbd8eed69	-0.06978876
255	0xbc036ba4	-0.008021269

fc2.bias f4 [64]
0	0x3d5fe2f3	0.054659795
1	0x3d5e55a7	0.054280903
2	0xbd16de3b	-0.03683303
3	0xbceaca3e	-0.02866089
4	0x3cdf5ee5	0.027266929
5	0xbc9fbb17	-0.019498391
6	0xbcbe19d4	-0.023205675
7	0x3d117b00	0.035517693
8	0x3d1b43a9	0.037906323
9	0x3d990b23	0.07472827
10	0x3c3bc625	0.011460816
11	0x3c8f1788	0.017467275
12	0xbc4abd28	-0.0123742
13	0xbac575df	-0.0015065036
14	0xbc77e41d	-0.01513007
15	0xbbb4436c	-0.0055012014
16	0x3d7cd2be	0.061724417
17	0xbcdf7168	-0.027275756
18	0xbd978da7	-0.07400065
19	0xbd4a2470	-0.049351156
20	0x3caa7fd0	0.020812899
21	0xbd2bd221	-0.04194844
22	0x3d0ff44a	0.03514508
23	0xbc9f761f	-0.019465504
24	0x3c952d73	0.018210148
25	0x3cec90bb	0.028877607
26	0x3c59ac39	0.01328569
27	0x3d43bf0f	0.04778963
28	0xbc0bd033	-0.008533525
29	0x3cf1aba3	0.029500788
30	0xbd8dbcb0	-0.06920755
31	0xbce08473	-0.027406907
32	0x3c7f428c	0.015579831
33	0x3c10a40a	0.008828172
34	0x3ccc5b29	0.024945812
35	0x3c0ac407	0.008469588
36	0xbcb10bcb	-0.021612069
37	0x3db32a65	0.087483205
38	0xbaaa55b2	-0.001299551
39	0xbd019491	-0.031635825
40	0x3d1152fe	0.03547954
41	0x3d760969	0.060067568
42	0x3d2939b3	0.041314792
43	0xbd1cf344	-0.038317934
44	0x3cf27855	0.029598394
45	0x3d81b40a	0.06333168
46	0x3d5c62b3	0.053805064
47	0x3d2d39cf	0.04229146
48	0x3d610b3d	0.05494236
49	0x3cc306f0	0.023807019
50	0x3c87254f	0.016497282
51	0x3d35f403	0.04442216
52	0x3da614bd	0.08109424
53	0x3d0d3da5	0.034482617
54	0x3d459eb0	0.04824704
55	0x3d9674aa	0.07346471
56	0xbd4fb156	-0.05070623
57	0xbd61f60f	-0.0551663
58	0xbd4806d5	-0.04883464
59	0xbc0e91ab	-0.008701722
60	0x3d904d5e	0.070460066
61	0x3d98de8e	0.07464324
62	0x3c2e49f9	0.010637754
63	0x3ce8c7ed	0.028415645

fc3.weight f4 [10, 64]
0	0xbe3cc70c	-0.18435305
1	0xbe55f4f1	-0.20894219
2	0x3d26228a	0.040560283
3	0x3e9a3912	0.30121666
4	0x3cbc39a4	0.022976704
5	0x3dfb7518	0.12278193
6	0x3cc8a1ef	0.024491278
7	0x3ec0196c	0.37519395
8	0xbcd7bdbb	-0.026335588
9	0xbdac9329	-0.08426506
10	0x3ea31c67	0.31857607
11	0x3e839fb8	0.25707793
12	0xbc340122	-0.010986598
13	0xbdc310d6	-0.095246956
14	0xbccf9b56	-0.025342625
15	0x3e62f9fe	0.22165677
16	0x3c5f7a33	0.013639974
17	0xbd6ac824	-0.057319775
18	0x3debeb86	0.11519532
19	0xbe9c90cb	-0.30579218
20	0x3db198fc	0.086717576
21	0xbda8676b	-0.082228504
22	0x3d94e864	0.072708875
23	0xbe93e56d	-0.28885975
24	0xbd985ec3	-0.07439949
25	0xbe4e9bb4	-0.20176584
26	0xbcbe195e	-0.023205455
27	0xbdec4e4b	-0.11538371
28	0x3df4bfb8	0.1195063
29	0xbdaa0ac2	-0.08302833
30	0xbdb0c46b	-0.08631214
31	0xbac12f92	-0.0014738909
32	0x3e9b7380	0.30361557
33	0x3bee7891	0.007277556
34	0xbc5a1997	-0.013311765
35	0xbd295fe7	-0.041351225
36	0x3d0f248c	0.034946963
37	0xbea23933	-0.31684265
38	0x3df33552	0.118754044
39	0xbd9402b7	-0.0722708
40	0xbe9a4451	-0.30130246
41	0x3d06366d	0.03276675
42	0xbd8d891c	-0.06910917
43	0xbe56133c	-0.20905775
44	0x3e1e4b02	0.154583
45	0xbd97e656	-0.0741698
46	0x3dbb13c9	0.09134633
47	0x3c74f84b	0.014951776
48	0x3dcff981	0.10155011
49	0xbe3d57f9	-0.1849059
50	0x3a8e154c	0.0010840087
51	0xbe3c01bf	-0.18360041
52	0x3e3e6b75	0.18595679
53	0x3e40114e	0.18756601
54	0xbd9dc020	-0.077026606
55	0x3e90839c	0.2822541
56	0xbe1132b8	-0.14179504
57	0xbcba23b8	-0.02272211
58	0x3dc0dfb7	0.0941767
59	0xbe34fe77	-0.17675196
60	0xbe81bb47	-0.25338194
61	0x3db60784	0.08888152
62	0xbda321dc	-0.079654425
63	0xbd752b09	-0.059855495
64	0x3e9a0da5	0.30088535
65	0x3e458941	0.1929064
66	0xbddaf0a6	-0.10690431
67	0xbeb25373	-0.34829292
68	0xbe1c6921	-0.15274478
69	0xbdedf7ab	-0.116195045
70	0xbd8ff213	-0.07028594
71	0x3c9e09f2	0.019291852
72	0x3c14ea77	0.009089104
73	0xbda005a5	-0.078135766
74	0xbd947c12	-0.07250227
75	0x3cd154b1	0.02555308
76	0x3dcb0f48	0.09915024
77	0x3e1fafac	0.15594357
78	0x3dbb3d99	0.09142608
79	0xbe09def3	-0.13463955
80	0x3d9995c1	0.074992664
81	0xbdf38f71	-0.11892594
82	0xbdf81c27	-0.12114745
83	0xbe393664	-0.18087155
84	0xbeda1c87	-0.4259989
85	0xbdf6960b	-0.12040337
86	0x3d7f8c96	0.062389933
87	0x3dd23991	0.10264886
88	0xbd2ae87c	-0.04172562
89	0x3e30cfca	0.17266765
90	0x3c307491	0.010769979
91	0xbc0955c3	-0.008382264
92	0x3d8a5d2c	0.067560524
93	0x3e808b45	0.25106254
94	0x3e018f84	0.12652403
95	0x3dc1f080	0.094697
96	0xbe065514	-0.13118392
97	0x3dd9aea3	0.106290124
98	0x3e621a69	0.22080387
99	0x3e91c64d	0.28471604
100	0x3d1a68ea	0.03769771
101	0x3e791f23	0.24328284
102	0x3ddc9698	0.10770911
103	0xbccff26b	-0.025384149
104	0x3e4d0f5c	0.2002539
105	0x3dd1d9e3	0.10246637
106	0xbed868b9	-0.42267397
107	0x3e0d402d	0.13794012
108	0x3d260989	0.040536437
109	0x3c73e314	0.014885683
110	0xbe000e87	-0.12505542
111	0xbd420589	-0.04736856
112	0xbe91e17b	-0.2849234
113	0xbda8b515	-0.08237664
114	0x3dd31edb	0.103086196
115	0xbe6de5df	-0.2323222
116	0xbe9afc1d	-0.30270472
117	0x3d56e543	0.052464735
118	0x3e1acb58	0.15116632
119	0xbe39fafd	-0.1816215
120	0xbdde87a8	-0.10865718
121	0xbd5293e4	-0.05141057
122	0x3d8ca84e	0.06868039
123	0x3d39ee3c	0.045393214
124	0x3db3b006	0.08773808
125	0x3e0a70c9	0.13519587
126	0x3e32a517	0.1744579
127	0x3d8cb426	0.06870298
128	0xbea0f58d	-0.3143734
129	0x3e2627b6	0.16226086
130	0xbe022235	-0.12708361
131	0xbdc734ea	-0.097268894
132	0xbda44f97	-0.08022993
133	0xbe5e4799	-0.21707
134	0x3e8348d6	0.25641507
135	0x3eae0c73	0.33993873
136	0x3e71a82d	0.2359931
137	0xbc150795	-0.009096046
138	0xbdeb83c0	-0.11499739
139	0x3e867564	0.26261437
140	0x3d16a267	0.036775973
141	0xbe287fd2	-0.1645501
142	0xbde7c6a7	-0.11317187
143	0x3e3490e4	0.17633396
144	0xbdb744e1	-0.089486845
145	0xbd97bb8c	-0.074088186
146	0x3dd5131a	0.10404034
147	0xbe8570b3	-0.26062545
148	0x3be864cc	0.007092094
149	0x3d80e290	0.06293213
150	0xbe7778be	-0.24167153
151	0x3eccc2f6	0.39992493
152	0xbde32191	-0.11090387
153	0x3d19f06b	0.037582796
154	0xbd9433ee	-0.07236467
155	0xbcb3c76d	-0.02194568
156	0xbdde5d30	-0.10857618
157	0xbdcf1412	-0.1011125
158	0x3c6250ec	0.013813239
159	0x3cf18489	0.029482143
160	0x3e7e50ae	0.24835464
161	0xbdc08389	-0.09400088
162	0xbe21dc64	-0.15806729
163	0x3a872a6a	0.0010312323
164	0x3daf3103	0.0855427
165	0x3e88c72a	0.2671445
166	0xbdc51fc7	-0.09625202
167	0x3b959591	0.004564949
168	0xbe2457ba	-0.1604909
169	0x3de7c7d7	0.11317413
170	0xbd7aa19a	-0.06118927
171	0x3decb3d9	0.11557741
172	0x3d1ab316	0.037768446
173	0xbd6f18cb	-0.058373254
174	0xbdd2e637	-0.10297816
175	0x3df03218	0.117283046
176	0x3e2712f3	0.16315822
177	0x3e26beb5	0.16283686
178	0x3deb1447	0.11478477
179	0x3ee7746c	0.4520601
180	0xbdb41b49	-0.08794267
181	0x3de0e6db	0.10981532
182	0x3e67d26d	0.22638865
183	0x3e6954cd	0.22786255
184	0xbd9c2502	-0.07624246
185	0x3b8db0e0	0.0043240637
186	0xbc78aa3e	-0.015177308
187	0xbd674730	-0.056464374
188	0xbe534ea4	-0.20635468
189	0x3d84be98	0.064816654
190	0x3de86375	0.11347095
191	0x3cfd7f09	0.030944364
192	0x3daedbe1	0.08538032
193	0xbe739c2f	-0.23790048
194	0xbd7e749d	-0.06212293
195	0xbe79367e	-0.24337193
196	0x3e082daf	0.13298677
197	0xbe5b238e	-0.21400282
198	0xbd20b8f1	-0.039238874
199	0xbd1683d2	-0.036746807
200	0xbe7520e2	-0.23938325
201	0x3c6154e6	0.0137531515
202	0xbe0aa134	-0.13538057
203	0x3e1b0c71	0.15141465
204	0x3af4e086	0.0018682636
205	0x3e621292	0.22077397
206	0x3c76d228	0.015064754
207	0x3b8d2002	0.004306794
208	0x3e1a6eea	0.15081373
209	0xbccec105	-0.025238523
210	0x3d24bd6b	0.040219706
211	0x3e6593cd	0.22419663
212	0xbece44bc	-0.40286815
213	0xbb621670	-0.0034498237
214	0x3e84c5b4	0.25932086
215	0x3e1ba2e6	0.1519886
216	0x3be0b42c	0.0068574157
217	0xbdf250b2	-0.11831798
218	0xbd174725	-0.036933083
219	0x3be507bc	0.0069894474
220	0x3cdcf32c	0.026971422
221	0xbcad7a45	-0.021176467
222	0xbe6d78df	-0.2319064
223	0xbdd11373	-0.10208788
224	0x3e16e2c0	0.14734936
225	0x3e48958c	0.19588298
226	0x3dc21335	0.0947632
227	0x3e1b69b5	0.15177043
228	0x3d98a1f1	0.07452763
229	0xbe0e2b6f	-0.13883756
230	0x3da44f20	0.080229044
231	0x3d50ebd9	0.05100617
232	0xbe1c4800	-0.15261841
233	0xbca2f115	-0.019890347
234	0x3e3c2432	0.18373182
235	0x3e93e4e6	0.28885573
236	0xbe1aa133	-0.15100555
237	0xbdd57fb9	-0.10424752
238	0xbe6f40ce	-0.23364565
239	0xbda3667a	-0.0797853
240	0x3d2fdc7b	0.042934876
241	0x3ea7d8d5	0.32782617
242	0x3d892957	0.06697338
243	0x3d841caa	0.0645078
244	0x3dab9f10	0.08379948
245	0xbe1127a4	-0.14175278
246	0xbe4affa1	-0.19824077
247	0x3da57897	0.08079641
248	0xbdc060a0	-0.0939343
249	0xbd92fbac	-0.07176909
250	0x3d703f5b	0.05865417
251	0xbe26b028	-0.16278136
252	0xbe852497	-0.26004478
253	0xbdfc9a56	-0.12334125
254	0x3ea4c01e	0.32177824
255	0xbb790c93	-0.003800188

fc3.bias f4 [10]
0	0xbdc48e2c	-0.0959743
1	0xbcc454ac	-0.023966156
2	0xbc477271	-0.012173281
3	0xbd8e9a49	-0.06963021
4	0x3dbda62f	0.09260213
5	0xbd31bee4	-0.043394938
6	0xbce5d63c	-0.028056256
7	0xbd83a147	-0.064272456
8	0x3d706c1f	0.058696862
9	0x3d2fb29b	0.04289494
