pytorch-mnist/model/mnist_nn.pt (torch, 439909 bytes, 6 tensors)

fc1.weight f4 [128, 784]
0	0x3c4ce403	0.012505534
1	0x3cf4c23a	0.02987777
2	0x3c9e735a	0.019342113
3	0x3d05c1b8	0.032655448
4	0xbd003c0c	-0.031307265
5	0x3bf0040a	0.0073247002
6	0x3b951bfe	0.004550456
7	0x3c9c3c4a	0.019071717
8	0x3c58226d	0.0131918015
9	0x3b0ae3c7	0.0021192895
10	0xbc8502e3	-0.016236728
11	0xbd10a9c8	-0.035318166
12	0x3c3350e1	0.010944576
13	0x3c855dd8	0.0162801
14	0xbce1f475	-0.027582387
15	0xbc82319b	-0.015892794
16	0xbcec0e75	-0.028815487
17	0x3b26c2be	0.0025445665
18	0x3c6f109b	0.014591361
19	0xbb640b34	-0.0034796717
20	0xbd01af1d	-0.03166114
21	0x3d0f89f4	0.03504367
22	0xbd0d76c2	-0.034537084
23	0xbb2e23b1	-0.0026571567
24	0xbd03aff2	-0.032150216
25	0xbc6979b5	-0.014250209
26	0xbc58a1fe	-0.013222216
27	0xbce821c5	-0.028336415
28	0x3aaeaf57	0.0013327402
29	0x3b85521e	0.004068627
30	0x3b8d978b	0.004321044
31	0x3c36f4ec	0.011166792
32	0xbcc81481	-0.02442384
33	0x3d069075	0.03285261
34	0x3b686939	0.0035463108
35	0x3ce89358	0.028390571
36	0xbcafc721	-0.021457257
37	0x3c6b0e3a	0.014346654
38	0x3c02d432	0.007985162
39	0xbd10e6b1	-0.035376254
40	0x3d072dc7	0.03300264
41	0x3bdfd412	0.0068307007
42	0xbc4984af	-0.012299701
43	0x3c0e89fa	0.008699888
44	0x3ba39c03	0.0049929633
45	0xbb8d7bf5	-0.0043177553
46	0xbcde71d8	-0.027153894
47	0x3c39bba2	0.011336239
48	0xbd01d98f	-0.03170162
49	0xbcadb2b0	-0.021203369
50	0x3cf7817b	0.030213108
51	0xbcd659ee	-0.026165929
52	0x3c628063	0.013824555
53	0x3b868701	0.004105449
54	0x3ccd9cf8	0.025099263
55	0xbcb357d0	-0.021892458
56	0x3ce475b8	0.027888164
57	0x3c837694	0.016047753
58	0x3d0bdf40	0.034148455
59	0x3ced6eb8	0.028983459
60	0xbca19efb	-0.019729128
61	0xbc3e117a	-0.011600846
62	0x3cbc3fb8	0.022979602
63	0xbc744f92	-0.014911549
64	0x3c50ba2d	0.0127397
65	0xbcdd38e2	-0.027004663
66	0x3c94c3c1	0.018159749
67	0xbc0057ac	-0.007833403
68	0xbd177a88	-0.03698209
69	0x3cbd92f5	0.023141364
70	0xbcc2f669	-0.023799138
71	0xbb974f54	-0.004617611
72	0xbc8f2132	-0.017471883
73	0x3bb9eedd	0.0056742267
74	0xbcf83721	-0.030299725
75	0x3cdff386	0.0273378
76	0xbcdd4c5e	-0.027013954
77	0xbc173760	-0.009229511
78	0x3c4289d8	0.011873685
79	0xbd046ec1	-0.032332186
80	0xbc3c6a43	-0.011499944
81	0x3c17a1dc	0.009254899
82	0xbd04e25a	-0.03244243
83	0x3bd4523d	0.00647953
84	0xbb498782	-0.0030750935
85	0xbc3108f5	-0.010805358
86	0x3c294d13	0.010333317
87	0x3c835cdc	0.01603549
88	0xba9fa21a	-0.0012179047
89	0x3d084400	0.033267975
90	0xbc88d3b1	-0.016702505
91	0x3c94acd2	0.018148813
92	0x3d066dc1	0.032819513
93	0xbb9e6dc4	-0.0048348624
94	0xbc3b3853	-0.011427003
95	0x3c20edad	0.009822291
96	0x3b1ed94e	0.002423841
97	0x3aee8d01	0.0018199981
98	0x3ce9ed0d	0.028555417
99	0x3ce2f71d	0.027705723
100	0x3d11245c	0.035435066
101	0x3cb257b4	0.021770336
102	0x3c9bb697	0.019007964
103	0x3cdfb8a9	0.027309733
104	0x3c28c39c	0.010300543
105	0xbc8d3fa1	-0.017242255
106	0xbce931d3	-0.02846614
107	0xbc51e7a0	-0.012811571
108	0xbcef6a6e	-0.029225554
109	0x3c603fec	0.013687115
110	0xbb272ae3	-0.002550774
111	0x3cc28015	0.023742715
112	0x3cb4b44f	0.022058634
113	0xbc9d5e14	-0.019209899
114	0xbcc103a3	-0.023561304
115	0xbbe26a24	-0.0069096256
116	0x3c1f4bb2	0.009722637
117	0xbc3bcd25	-0.0114624845
118	0x3c2f2687	0.010690338
119	0xbc232b41	-0.009959043
120	0xbb6fe5f2	-0.0036605564
121	0xbb086c26	-0.0020816415
122	0xbc68f92c	-0.014219563
123	0x3cae9d99	0.021315383
124	0x3ca2989e	0.019848164
125	0x3b2a9f4a	0.0026034885
126	0x3c5b2599	0.013375663
127	0xbcdfceff	-0.027320383
128	0x3b960dc8	0.0045792796
129	0xbcc21dad	-0.023695791
130	0x3c980477	0.018556817
131	0x3b4cb562	0.0031236042
132	0x3c15c171	0.009140358
133	0x3c25fe9b	0.010131503
134	0xbc898d9c	-0.016791157
135	0xba0066ee	-0.000489815
136	0x3cc7f26a	0.024407584
137	0x3ccf2d95	0.02529029
138	0x3c290abe	0.010317503
139	0xbce47d84	-0.027891882
140	0x3ca44261	0.020051183
141	0xbc54e759	-0.012994611
142	0xbc41ae05	-0.011821275
143	0x3cfbf0cd	0.030754471
144	0xbbd1bcaa	-0.0064006643
145	0x3cceb931	0.02523479
146	0x3c894a05	0.016758928
147	0xbbea4836	-0.0071497215
148	0x3c65633e	0.014000712
149	0xbc675672	-0.014119731
150	0xbc3367d7	-0.01095005
151	0x3d080b3a	0.03321383
152	0xbc2f2cac	-0.010691803
153	0x3c82d382	0.015969995
154	0x3c5af68e	0.013364447
155	0x3cdd7f3d	0.027038211
156	0xbcc8ac63	-0.024496263
157	0x3cb16ab9	0.021657335
158	0x3b9cceb9	0.0047853854
159	0x3ba8abd8	0.0051474385
160	0xbc94e603	-0.018176084
161	0xbb2a34f4	-0.0025971504
162	0xbce8c959	-0.028416323
163	0xbc152a86	-0.009104377
164	0xbc3049e2	-0.010759803
165	0xbb8f7d68	-0.0043789633
166	0xbcab8627	-0.020937992
167	0x3b73a5dc	0.0037177717
168	0xbd010dbb	-0.031507235
169	0x3cb6071e	0.02222019
170	0xbcc57bf1	-0.024106951
171	0xbb69bc42	-0.003566519
172	0xbcc8dc8c	-0.024519227
173	0x3bffa52f	0.007801674
174	0x3bb80ccc	0.00561676
175	0x3ba1de28	0.004939813
176	0x3bd691dc	0.0065481495
177	0x3d1c6550	0.038182557
178	0x3cd862cc	0.026414298
179	0xbcb3121d	-0.021859223
180	0x3ce3f241	0.027825477
181	0xbca250c1	-0.019813897
182	0x3d244e94	0.040114
183	0xbc384e35	-0.011249115
184	0x3bff601b	0.007793439
185	0x3cde76c1	0.027156236
186	0x3d0cdb81	0.034389023
187	0x3cb90744	0.022586472
188	0xbc8db1c5	-0.017296681
189	0xbca57901	-0.0201993
190	0xbceaa734	-0.028644182
191	0xbd29c05a	-0.041443206
192	0x3c9b567a	0.018962134
193	0x3c9841ba	0.018586028
194	0xb98c6426	-0.00026777497
195	0xbcd0fd0f	-0.025511293
196	0xbb77cef7	-0.003781257
197	0xbcd76ef4	-0.026298024
198	0xbd10e23d	-0.035372008
199	0xbb51a934	-0.0031991722
200	0x3cfc13c8	0.030771151
201	0x3c19618d	0.009361637
202	0xbc12cd2b	-0.008960049
203	0xbc5f9e38	-0.013648562
204	0x3ca78e7b	0.020453682
205	0xbce9688d	-0.028492237
206	0x3cd31eca	0.025771517
207	0x3af7d3c7	0.0018907719
208	0x3c6b8e06	0.014377123
209	0x3ceb2159	0.028702425
210	0x3cb4cc5b	0.0220701
211	0xba092d2a	-0.0005232865
212	0x3cbd273e	0.023090001
213	0xbc855ec3	-0.016280537
214	0xbcf604cf	-0.03003159
215	0xbc8ff3df	-0.017572341
216	0x3c5a6235	0.013329078
217	0x3c41244d	0.01178844
218	0xbc9554e6	-0.01822896
219	0xbc9175a1	-0.017756285
220	0xbcf98551	-0.030459078
221	0xbd1d1cce	-0.03835755
222	0x3bc907c5	0.0061349594
223	0xbcb6ed37	-0.02232991
224	0xbbd6b6ff	-0.0065525766
225	0xbbc9a554	-0.006153742
226	0x3b7c926d	0.0038539425
227	0xbc33f853	-0.010984498
228	0xbc1bb144	-0.009502713
229	0x3d0188b4	0.03162451
230	0x3ce2fc94	0.02770833
231	0x3c784be5	0.015154813
232	0x3b9ed90a	0.0048476504
233	0x3bb6e8e2	0.005581961
234	0xbca0fc97	-0.019651694
235	0xbb09edd6	-0.0021046302
236	0x3c78c4d0	0.0151836425
237	0x3a865c25	0.001025085
238	0xbbf60ee8	-0.007509101
239	0xbcb860c1	-0.022507073
240	0x3c3137c4	0.010816518
241	0x3d033cbd	0.032040346
242	0x3c2e7f9e	0.0106505435
243	0x3d125a22	0.03573049
244	0xbba8b2f0	-0.005148284
245	0x3bd30915	0.0064402916
246	0xbc8b77fd	-0.017024988
247	0xbcf75674	-0.030192591
248	0xbd441611	-0.047872607
249	0xbd2058c1	-0.039147142
250	0x3c8478ea	0.016170938
251	0xbcace69a	-0.021106053
252	0xbce6b642	-0.02816308
253	0xbad5a2e0	-0.0016299151
254	0x3bff54bc	0.0077920835
255	0xbce82811	-0.028339418

fc1.bias f4 [128]
0	0xbca47905	-0.020077238
1	0x3ccbc249	0.024872916
2	0x3c1f4428	0.00972084
3	0x3ca0e332	0.019639585
4	0x3d032781	0.032020096
5	0x3bc88e68	0.006120492
6	0x3cc6884a	0.02423491
7	0xbcc0f85e	-0.02355593
8	0x3d0da724	0.034583226
9	0xbcdb9f38	-0.02680932
10	0xbc61fd66	-0.013793325
11	0x3cb5d50e	0.022196319
12	0xbcfb98a2	-0.03071243
13	0xbd063522	-0.032765515
14	0xbc8d9e97	-0.017287536
15	0xbb147835	-0.0022654657
16	0xbcb1360b	-0.021632215
17	0x3bd3e5fd	0.0064666257
18	0xbb3bc824	-0.0028653229
19	0xbb330326	-0.002731511
20	0x3a311825	0.0006755612
21	0x3b5585f0	0.0032581054
22	0x3d1060b2	0.035248466
23	0xbcd73981	-0.026272537
24	0xbac417f3	-0.0014960751
25	0x3caf6910	0.021412402
26	0x3a602459	0.0008550338
27	0xbc1f4340	-0.0097206235
28	0xbcbbe8ca	-0.02293815
29	0xbb1230af	-0.002230685
30	0x3ca6b2e3	0.020348972
31	0xbbf77337	-0.0075515765
32	0x3ccc414f	0.024933485
33	0xbc0ab793	-0.008466619
34	0x3c9f3b47	0.019437445
35	0xbc3e7928	-0.011625566
36	0xbceca593	-0.028887546
37	0xbcbf474e	-0.02334943
38	0x3b3dd9d5	0.002896895
39	0x3c2cefc5	0.010555212
40	0xbc860580	-0.016360044
41	0xbcea966c	-0.02863618
42	0xbc5eba62	-0.013594242
43	0x3ced5270	0.028969973
44	0xbb90fbce	-0.0044245487
45	0x3c042ced	0.008067352
46	0x3d1e5b39	0.038661215
47	0xbbd700d5	-0.0065613785
48	0xbc6bda41	-0.0143952975
49	0x3be5f26e	0.0070174253
50	0xbd024c6a	-0.031811155
51	0xbc921cc9	-0.017835991
52	0xbc414ca2	-0.011798056
53	0xbcac6b78	-0.021047339
54	0x3cd478ba	0.025936473
55	0x3cc8a7ae	0.024494018
56	0x3d19d51f	0.037556764
57	0x3c33021c	0.010925796
58	0xbd062da3	-0.032758366
59	0xba2ea303	-0.0006661864
60	0x3d115f39	0.035491202
61	0x3c36a30d	0.011147273
62	0x3a278ea9	0.00063918025
63	0x3d1b7422	0.03795255
64	0xbb87adc3	-0.004140587
65	0xbb8ebae2	-0.0043557743
66	0xbc418e8c	-0.011813771
67	0x37b3b349	2.1421949e-05
68	0xbbbed180	-0.005823314
69	0x3b9c6941	0.0047732894
70	0x3cb40e90	0.0219796
71	0x3cafcbcd	0.021459484
72	0xbd0b546c	-0.034016058
73	0x3bebd491	0.0071969707
74	0xbbdcfb40	-0.0067438185
75	0xbcfdfe03	-0.031004911
76	0xbc218b61	-0.009859891
77	0x3cfcd0ac	0.030861221
78	0xbc9b5a69	-0.01896401
79	0xbca5ba32	-0.020230386
80	0x3c2e8c9d	0.010653642
81	0xbd08ad9f	-0.033368703
82	0x3ca1d437	0.019754512
83	0xbd098482	-0.033573635
84	0x3c9ad16c	0.018898688
85	0xbc59914d	-0.013279271
86	0xbc0cf2c5	-0.008602803
87	0x3d006d45	0.031354208
88	0xbb7352ed	-0.0037128285
89	0xbbe75155	-0.007059256
90	0x3c61d3d2	0.013783412
91	0xbc3118da	-0.010809148
92	0xbcddd2de	-0.027078088
93	0x3cf09a46	0.029370438
94	0xbbb61740	-0.005556971
95	0x3ce6c312	0.028169189
96	0xbd018175	-0.0316176
97	0xbc93e593	-0.018053805
98	0x3d0e59e6	0.034753703
99	0x3c006f2e	0.007839007
100	0xbb2bdc2f	-0.002622377
101	0xbb274620	-0.0025523975
102	0xbb5c3096	-0.0033598295
103	0xbc8de540	-0.017321229
104	0x3c55292c	0.013010304
105	0xbbafd634	-0.005366111
106	0xbb616c9c	-0.0034397012
107	0xbca77b1b	-0.020444443
108	0xbc203b51	-0.009779767
109	0xbcda62cd	-0.02665844
110	0xbc47178a	-0.012151608
111	0x3d0acd97	0.033887472
112	0x3c35752d	0.0110753
113	0xbcdc5e6a	-0.026900489
114	0x3c24c65c	0.010057058
115	0xbd02dbbe	-0.031947844
116	0xbba05f67	-0.0048941853
117	0xbc390983	-0.011293772
118	0x3cd03e9b	0.025420478
119	0xbcde80ba	-0.027160991
120	0xbcb30ab4	-0.02185569
121	0xbc5fee4d	-0.013667655
122	0xbbeee9c8	-0.0072910525
123	0x3c40d792	0.011770146
124	0xbc4ab8c5	-0.012373154
125	0xbc93ba75	-0.018033246
126	0x3c665b26	0.014059817
127	0xbc7f78ed	-0.015592796

fc2.weight f4 [64, 128]
0	0xbc700f77	-0.014652125
1	0xbc987b54	-0.018613495
2	0x3d565f1f	0.05233681
3	0x3da3942c	0.07987246
4	0xbd0beb39	-0.034159873
5	0xbda7b615	-0.08189026
6	0x3b409d72	0.002939072
7	0x3d8f27df	0.06990027
8	0xbd58a736	-0.05289384
9	0xbd2fa91b	-0.04288588
10	0xbcd446a9	-0.0259126
11	0x3cda3a1b	0.026639035
12	0x3d21f890	0.03954369
13	0xbbc7610a	-0.006084566
14	0x3d45fa97	0.048334684
15	0x3da88999	0.0822937
16	0xbd957b9a	-0.07298966
17	0x3d86da4e	0.06584607
18	0xbd9c2e77	-0.0762605
19	0xbd9402cc	-0.07227096
20	0x3c623309	0.013806113
21	0xbb93e9d5	-0.004513959
22	0xbd85adb4	-0.06527272
23	0x3d5c56d7	0.053793754
24	0x3db4b317	0.08823221
25	0x3d93bdb0	0.072139144
26	0xbd223f01	-0.039610866
27	0xbd55003b	-0.052002173
28	0xbd3dc61e	-0.046331517
29	0xbd58caa8	-0.052927643
30	0xbd5d7d54	-0.0540746
31	0xbd1fc416	-0.03900536
32	0xbc71eae5	-0.014765476
33	0xbd27837a	-0.04089687
34	0x3bfadcaa	0.0076556997
35	0x3ce28c19	0.027654694
36	0x3b79ad26	0.003809759
37	0x3d953c89	0.07286937
38	0x3d879313	0.06619849
39	0xbc5a7825	-0.013334309
40	0xbda908a7	-0.082536034
41	0xbccaff15	-0.024779836
42	0x3da682f8	0.08130449
43	0xbd16d465	-0.03682365
44	0x3d7c0f3a	0.06153796
45	0xbda95cf6	-0.08269684
46	0xbd334e6a	-0.043775953
47	0xbd2d3f7f	-0.042296883
48	0x3d86168d	0.0654727
49	0x3c8a6e71	0.016898366
50	0xbd3a94ee	-0.045552187
51	0xbd9777a0	-0.073958635
52	0xbda8c292	-0.08240236
53	0x3d76236a	0.060092367
54	0xbca78474	-0.0204489
55	0x3c4c3e57	0.012466035
56	0x3d0c5d07	0.034268405
57	0xbd81d85a	-0.06340094
58	0xbd22b138	-0.03971979
59	0xbce8c755	-0.028415361
60	0xbcc51235	-0.024056533
61	0xbd00d510	-0.031453192
62	0xbd5b4e6b	-0.053541582
63	0x3da31d28	0.079645455
64	0x3daa73f3	0.08322897
65	0x3cf2c213	0.029633557
66	0x3d79b61c	0.06096469
67	0x3c79b9a3	0.015242013
68	0x3ccc78ea	0.02496
69	0xbbda92f3	-0.0066703497
70	0xbd01a0bc	-0.03164743
71	0x3d835510	0.06412709
72	0xbce18e21	-0.027533593
73	0xbd632be4	-0.05546178
74	0x3da7d863	0.08195569
75	0xbc73bfe2	-0.014877291
76	0xbda81d3e	-0.082087025
77	0x3d800652	0.062512055
78	0x3d4ef2a6	0.050524376
79	0xbd92daed	-0.07170663
80	0x3da52717	0.080640964
81	0x3c5006dd	0.012696949
82	0x3da7979d	0.08183215
83	0xbd7248e9	-0.059151564
84	0x3d2cf450	0.042225182
85	0xbd2eb2a9	-0.042650852
86	0xbdaca92d	-0.08430705
87	0x3d440aba	0.047861792
88	0xbd0d93dc	-0.034564838
89	0xbd1b81c4	-0.03796555
90	0xbd6e4f72	-0.058181234
91	0x3da530ca	0.080659464
92	0x3c6d130c	0.014469873
93	0x3d99e238	0.07513851
94	0x3d089126	0.03334155
95	0x3caff28f	0.021477966
96	0xbd89c494	-0.067269474
97	0xbd2b83e5	-0.04187383
98	0xbcd3eccc	-0.02586975
99	0xbdaae11f	-0.0834372
100	0xbd7ef9e7	-0.062250044
101	0x3a7699c9	0.0009407071
102	0xbd8fad1e	-0.07015441
103	0x3d9a23fc	0.07526395
104	0x3da39305	0.07987026
105	0xbd874699	-0.06605262
106	0x3b85600b	0.004070287
107	0x3ce31b6b	0.027723035
108	0xbd9c0965	-0.07618979
109	0xbd386ce4	-0.04502572
110	0xbd323cba	-0.043514945
111	0xbd24c777	-0.040229287
112	0xbd334975	-0.043771226
113	0x3d743700	0.059622765
114	0xbd44a5a1	-0.04800952
115	0x3ae52375	0.001748188
116	0xbda7d376	-0.0819463
117	0x3d62037f	0.055179115
118	0x3da941ce	0.082645044
119	0x3d10b460	0.03532827
120	0xbcb6e488	-0.022325769
121	0xbc2eb53a	-0.010663325
122	0x3ca0644e	0.019579079
123	0x3c93d933	0.018047905
124	0xbcd838fa	-0.026394356
125	0xbda1a010	-0.078918576
126	0xbda65c6e	-0.08123098
127	0xbd45337b	-0.0481448
128	0x3b52f8cf	0.0032191759
129	0x3cbf57e5	0.023357341
130	0x3d76cd0d	0.060254145
131	0xbb409cd4	-0.0029390352
132	0xbd66c645	-0.05634143
133	0x3d9d0c42	0.076683536
134	0xbc323d22	-0.010878833
135	0xbc4ca91f	-0.0124914935
136	0x3cc75b37	0.024335487
137	0x3d48d3c1	0.04903007
138	0x3c7fdeb6	0.015617063
139	0x3de20022	0.110351816
140	0x3cdab440	0.026697278
141	0xbd1afdf7	-0.037839856
142	0xbd079c71	-0.03310818
143	0xbd512589	-0.051061187
144	0x3d148c8a	0.03626684
145	0xbc5f8042	-0.013641419
146	0x3bb78a2f	0.0056011896
147	0xbde8c902	-0.11366464
148	0x3d95f224	0.07321575
149	0x3b45f30d	0.0030204684
150	0xbb952803	-0.004551889
151	0x3dfad85f	0.12248301
152	0xbd918802	-0.071060196
153	0x3bfa6abd	0.0076421187
154	0xbdef3912	-0.11680807
155	0x3ce0363e	0.027369615
156	0x3c7760f4	0.015098799
157	0xbdbd8ba0	-0.09255147
158	0xbd24cd89	-0.040235076
159	0xbd0e3dac	-0.034726784
160	0x3d8913a3	0.066931985
161	0xbd318cf2	-0.043347307
162	0xbdd56ba3	-0.10420921
163	0x3d9b06e9	0.075696774
164	0x3d199577	0.037496056
165	0x3ad0b24e	0.001592228
166	0x3e035150	0.12823987
167	0x3da07af6	0.07835953
168	0x3deedb37	0.11662906
169	0xbd5ec3a9	-0.054385815
170	0xbdb47ed2	-0.088132516
171	0x3dd19638	0.1023373
172	0x3d920ba4	0.071311265
173	0x3ccff591	0.02538565
174	0x3d8d90de	0.06912397
175	0x3ce0ad3f	0.02742636
176	0xbd15bc6b	-0.036556643
177	0x3d23d8c3	0.040001642
178	0xbd22d854	-0.039757088
179	0x3d93d8ff	0.07219123
180	0x3db10814	0.08644119
181	0x3b8a8136	0.004226829
182	0x3d2444a8	0.04010454
183	0xbd55b595	-0.052175123
184	0x3d0d3fea	0.03448478
185	0x3c2e73f2	0.010647761
186	0xbd58c2e7	-0.05292025
187	0x3e0b0c22	0.13578847
188	0x3bab6745	0.0052308165
189	0x3dbbcc89	0.09169871
190	0xbc19abb8	-0.00937932
191	0xbd8889bb	-0.06666895
192	0xbd6502eb	-0.055910986
193	0x3e05e4b4	0.13075525
194	0x3b7d9f9a	0.0038699866
195	0xbcd344f4	-0.025789715
196	0x3c76fa10	0.015074268
197	0xbc9e9de2	-0.019362394
198	0x3da01098	0.07815665
199	0x3dc32047	0.09527641
200	0xbb813b5b	-0.0039438433
201	0xbcb86a02	-0.022511486
202	0xbd99d67f	-0.07511615
203	0xbd76ecfc	-0.0602846
204	0x3db2f32a	0.08737786
205	0x3d4436be	0.04790377
206	0x3db20bb8	0.086936414
207	0xbd7e6e27	-0.06211677
208	0xbcfb4fe4	-0.030677743
209	0x3d942deb	0.07235321
210	0xbbb4936e	-0.005510739
211	0x3d983d6d	0.07433591
212	0x3c1ccec2	0.009570779
213	0xbd2af65a	-0.041738845
214	0xbd4cd781	-0.050010208
215	0xbcebaa81	-0.028767826
216	0xbdc603f1	-0.096687205
217	0x3d6b0c74	0.057384923
218	0x3dc51d9b	0.096247874
219	0xbbb49e6a	-0.0055120485
220	0x3d3427be	0.043983214
221	0xbca1e306	-0.019761574
222	0xbd279105	-0.040909786
223	0xbda00c3f	-0.07814836
224	0xbd638a71	-0.05555195
225	0x3d1b5be8	0.037929446
226	0x3d7fc0d3	0.06243975
227	0xbdb28bd5	-0.08718077
228	0x3d9979d9	0.07493944
229	0x3b0ec345	0.002178387
230	0xba116a4e	-0.00055471517
231	0x3d993ca2	0.07482268
232	0xbd9a90c7	-0.07547145
233	0xbdbca654	-0.09211412
234	0x3df08613	0.11744323
235	0x3d989a3d	0.074512936
236	0x3bda3021	0.0066585694
237	0xbca11bae	-0.019666519
238	0x3db03855	0.086044945
239	0xbaa1b4ce	-0.0012337209
240	0xbd596623	-0.05307592
241	0x3cd26d32	0.025686834
242	0x3a8fd402	0.0010973217
243	0x3b953333	0.0045532226
244	0xbdc48831	-0.09596289
245	0x3dd494c8	0.1037994
246	0xbda1b475	-0.078957476
247	0xbdb406bf	-0.08790349
248	0xbd87d5ee	-0.06632601
249	0xbcd41250	-0.025887638
250	0x3d8d2764	0.06892279
251	0xbc73cb8b	-0.014880071
252	0xbcef1985	-0.029186973
253	0xbd8a8dc8	-0.06765324
254	0xbd258fe3	-0.040420424
255	0xbdb66c6d	-0.08907399

fc2.bias f4 [64]
0	0x3d76b4ca	0.060231008
1	0xbcac87fd	-0.021060938
2	0xbce7faf5	-0.028317908
3	0xbd9e6d94	-0.07735744
4	0x3da38b37	0.079855375
5	0xbda327ef	-0.07966601
6	0x3d4371b3	0.047715854
7	0xbca19ddb	-0.019728592
8	0x3d1ab2ca	0.037768163
9	0xbc2dd331	-0.010609434
10	0x3d6c1202	0.05763436
11	0xbccd361f	-0.025050221
12	0xbd176591	-0.036962096
13	0xbac6218b	-0.0015116198
14	0xbd25ebc0	-0.04050803
15	0x3cfbfb92	0.030759607
16	0xbda61e8d	-0.08111296
17	0x3d6ca8e5	0.057778258
18	0x3d802dd8	0.06258744
19	0xbce39933	-0.027783012
20	0xbdae9442	-0.08524372
21	0x3dc4400e	0.0958253
22	0x3d9a9edd	0.07549832
23	0x3c4c8951	0.012483911
24	0x3dc865c7	0.097850375
25	0xbd9666cc	-0.07343826
26	0x3d925abd	0.07146213
27	0x3c57d136	0.013172438
28	0xbd36bd28	-0.044613987
29	0xbd64f8f2	-0.055901475
30	0x3c36b357	0.011151156
31	0x3ca0efec	0.019645654
32	0xbd43308e	-0.047653727
33	0x3d544d5a	0.05183158
34	0xbc1518d3	-0.009100157
35	0xbcf5f2bd	-0.030022973
36	0xbce17299	-0.027520465
37	0x3d4867ca	0.048927106
38	0xbcfde8af	-0.030994741
39	0x3d6f891e	0.058480375
40	0x3d98b366	0.074560925
41	0xbd9a9d1c	-0.075494975
42	0x3d85b336	0.065283224
43	0x3d990dca	0.07473333
44	0xbd561410	-0.052265227
45	0xbd6841de	-0.05670344
46	0xbc178086	-0.009246951
47	0xbd17f0be	-0.037094824
48	0x3c971de5	0.018446872
49	0x3dca76f6	0.09885971
50	0xbd3b5d05	-0.045743007
51	0x3d16706d	0.03672831
52	0x3c913e87	0.01773001
53	0xbd84653d	-0.06464622
54	0xbba2e090	-0.0049706176
55	0xbda075d7	-0.07834976
56	0x3daf9c9f	0.08574795
57	0xbb994221	-0.0046770726
58	0xbd65746d	-0.056019235
59	0x3d5efc68	0.054439932
60	0xbdae73b3	-0.085181616
61	0xbd16d05a	-0.036819793
62	0xbd2be114	-0.041962698
63	0xbd3bd01e	-0.045852773

fc3.weight f4 [10, 64]
0	0x3c7fe237	0.015617899
1	0x3d933e28	0.0718959
2	0xbe13586e	-0.14389202
3	0xbdc714ce	-0.09720765
4	0xbdfe24f0	-0.12409389
5	0x3df35d7c	0.11883065
6	0xbe0f58b1	-0.13998677
7	0x3ba06584	0.004894914
8	0xbdcfdf5b	-0.101500235
9	0x3df8c92d	0.12147746
10	0x3d3f1606	0.046651863
11	0xba192a2b	-0.00058427703
12	0xbdda1861	-0.10649181
13	0xbe0b6897	-0.13614117
14	0xbe25f292	-0.16205814
15	0x3d1a10a1	0.037613515
16	0xbdcd3b58	-0.100210845
17	0x3e8fdcd0	0.28098154
18	0xbdcb045f	-0.09912943
19	0x3e4054dc	0.18782371
20	0x3dc979fd	0.098377205
21	0xbea09d01	-0.31369784
22	0x3d4b9735	0.04970475
23	0x3e075cc1	0.13218977
24	0xbd8faa09	-0.070148535
25	0xbccd41a9	-0.025055723
26	0xbe176ae2	-0.14786866
27	0x3c9bf579	0.019037949
28	0x3e8375d9	0.25675848
29	0x3e648a7d	0.22318454
30	0x3ea0a84b	0.31378397
31	0xbdb58162	-0.088625684
32	0x3dc22ec4	0.09481576
33	0xbe68829b	-0.22706072
34	0xbe7924b4	-0.24330407
35	0x3e3f4297	0.18677746
36	0x3e1045f3	0.14089184
37	0xbd28fc51	-0.041256253
38	0xbdb2675a	-0.08711119
39	0x3e71365b	0.23555891
40	0xbe688837	-0.22708212
41	0x3d6c9335	0.057757575
42	0xbdbd631c	-0.09247419
43	0x3e9ff9bc	0.3124522
44	0x3d959555	0.073038734
45	0xbe5354e4	-0.20637852
46	0xbd1e3a51	-0.038629834
47	0xbc544d7b	-0.012957926
48	0x3db71219	0.08938999
49	0x3dd3571d	0.1031935
50	0xbda84f19	-0.08218212
51	0xbc2f0f61	-0.010684819
52	0x3e6c1995	0.23056634
53	0x3c969359	0.018380808
54	0x3c36a5c3	0.011147919
55	0x3dae8749	0.08521897
56	0x3dd29de0	0.102840185
57	0xbe34218c	-0.17590922
58	0xbe1616bd	-0.14657111
59	0xbd84f0b9	-0.06491227
60	0xbe044f71	-0.1292093
61	0xbdd26266	-0.10272674
62	0xbe1d90f3	-0.15387325
63	0x3d08a626	0.033361576
64	0x3d00002c	0.031250164
65	0xbd536f4e	-0.05161982
66	0x3d833711	0.064069875
67	0xbe114d59	-0.14189662
68	0xbe366bfc	-0.1781463
69	0x3df5106f	0.11966025
70	0x3e891e48	0.26780915
71	0x3e0b9f46	0.13634977
72	0x3cf8e4ef	0.030382602
73	0xbde12d95	-0.10995022
74	0x3e4d3910	0.20041299
75	0xbe83ee91	-0.2576795
76	0x3d97fa38	0.07420772
77	0x3d313c75	0.043270547
78	0x3e41ac8a	0.18913475
79	0xbd2ab60a	-0.041677512
80	0x3db52829	0.088455506
81	0xbe6685ee	-0.22512028
82	0x3d6b9fdd	0.057525504
83	0xbe2f8e1e	-0.17144057
84	0x3dd9b9d8	0.1063115
85	0x3e177d23	0.1479383
86	0x3cce0b22	0.025151793
87	0xbe07075f	-0.13186406
88	0x3d993578	0.074809015
89	0xbd489033	-0.048965644
90	0xbe38f572	-0.1806238
91	0xbdf6401d	-0.120239474
92	0xbc4a970c	-0.012365114
93	0xbe625e47	-0.22106276
94	0xbe8e772a	-0.2782529
95	0xbde9f97b	-0.11424538
96	0x3d5666f0	0.052344263
97	0x3e8e5771	0.27801087
98	0x3d83aaea	0.06429084
99	0x3e0403f7	0.12892137
100	0xbea380c4	-0.31934178
101	0x3e04f1d0	0.12982869
102	0xbe6c4e00	-0.2307663
103	0x3e660c80	0.22465706
104	0xbe0d8abd	-0.13822456
105	0xbd1482d8	-0.036257595
106	0xbe35bb40	-0.17747211
107	0xbcc85f27	-0.024459435
108	0x3c1dca4e	0.009630753
109	0x3b2ffb72	0.0026852754
110	0xbe615bd7	-0.2200769
111	0x3daf1c09	0.08550269
112	0xbd3360d9	-0.043793533
113	0xbe92d053	-0.28674564
114	0xbe137b54	-0.14402515
115	0x3d3b60cf	0.04574662
116	0xbe43245f	-0.19056843
117	0x3d1fcf4a	0.039016046
118	0xbde52e07	-0.1119042
119	0xbe14f9f0	-0.14548469
120	0x3d86ae77	0.06576245
121	0x3ea14402	0.31497198
122	0x3dfcf8e6	0.12352161
123	0x3ded2d84	0.11580947
124	0x3e6dd475	0.23225577
125	0x3d4deb30	0.05027312
126	0x3e030ecb	0.12798612
127	0xbb94678c	-0.0045289453
128	0xbc51179a	-0.012761975
129	0x3e768526	0.2407423
130	0xbcb4b585	-0.022059212
131	0x3e066ec3	0.1312819
132	0x3e522281	0.20520975
133	0x3dd3b96d	0.103381015
134	0xbea5472e	-0.32280868
135	0x3dd48606	0.103771254
136	0xbd64a1b9	-0.055818293
137	0x3d8ba252	0.068180695
138	0x3e741df0	0.23839545
139	0xbd2fd81a	-0.0429307
140	0xbd337504	-0.043812767
141	0x3daf289e	0.08552669
142	0x3e2002a4	0.15626007
143	0xbe0b786d	-0.13620158
144	0xbd07e436	-0.033176623
145	0x3e5447cc	0.20730513
146	0x3e814086	0.2524454
147	0xbd0d666c	-0.034521505
148	0x3c3ee835	0.011652042
149	0x3d9b1b1d	0.07573531
150	0xbdd84d02	-0.10561563
151	0xbe2b7ba4	-0.16746384
152	0x3e6a0f90	0.22857499
153	0xbdd481f3	-0.10376348
154	0xbdb4666d	-0.08808599
155	0x3d9ab0d9	0.07553262
156	0xbd896d9c	-0.067103595
157	0xbd8fb45a	-0.07016821
158	0x3b3c64fa	0.002874671
159	0xbd8417ae	-0.06449829
160	0x3c3a7f71	0.011382923
161	0x3ddc715a	0.107638076
162	0xbd9cc66d	-0.07655034
163	0xbe309ce5	-0.1724735
164	0x3e2a72aa	0.16645303
165	0xbe91c491	-0.2847028
166	0x3ddd1d61	0.10796619
167	0x3e1f7808	0.15573132
168	0xbe1847e0	-0.14871168
169	0xbd4a495f	-0.04938638
170	0x3e218fb3	0.15777473
171	0xbe066c14	-0.13127166
172	0x3dc2aa24	0.09505108
173	0xbd7a14e0	-0.061055064
174	0xbe7c5b82	-0.24644282
175	0x3e39603b	0.18103115
176	0xbddf2602	-0.10895921
177	0x3ecd6336	0.40114754
178	0xbe4d876b	-0.20071189
179	0xbdeb3b00	-0.11485863
180	0xbe1afbf2	-0.15135172
181	0xbe07bbc7	-0.13255225
182	0xbd6b83b2	-0.05749864
183	0x3d1c6566	0.03818264
184	0x3de710fd	0.11282537
185	0xbd40e7e4	-0.047096148
186	0xbd991e0f	-0.07476436
187	0x3e53eb04	0.2069512
188	0x3c3e277e	0.011606095
189	0xbe10d6a3	-0.14144377
190	0x3e2dc6e9	0.1697041
191	0xbdaff688	-0.08591944
192	0xbd8c36a4	-0.06846359
193	0xbe667894	-0.22506934
194	0x3dc81741	0.0977006
195	0x3d5083a5	0.050906796
196	0xbdcb136b	-0.09915813
197	0x3d1e1123	0.03859056
198	0x3cd0f123	0.025505608
199	0xbea6c12f	-0.32569262
200	0xbd8a3769	-0.0674885
201	0xbe395182	-0.18097499
202	0x3d94998e	0.07255851
203	0xbda7fbe7	-0.082023434
204	0xbd9eccc4	-0.077539
205	0xbe6b1129	-0.22955765
206	0xbe078105	-0.13232811
207	0xbe07219f	-0.13196419
208	0xbded2cf0	-0.11580837
209	0x3e8ae995	0.27131334
210	0x3dfa1c23	0.12212398
211	0x3dc02783	0.09382536
212	0xbd2f89a6	-0.04285588
213	0x3e479501	0.19490434
214	0x3c76e4b3	0.015069175
215	0xbec239ee	-0.37934822
216	0x3d396190	0.04525906
217	0x3da365bc	0.07978389
218	0x3e00cae4	0.12577397
219	0x3df23d19	0.1182806
220	0x3d9ccb07	0.07655912
221	0xbd97eb20	-0.074178934
222	0x3e31cffb	0.17364495
223	0xbbb3994d	-0.0054809214
224	0xbdb391ca	-0.087680414
225	0x3d62258d	0.055211592
226	0x3d6ed08f	0.058304366
227	0xbe32ee2c	-0.17473668
228	0x3e3b4dbd	0.18291374
229	0x3e7b601c	0.24548382
230	0x3de7ef2a	0.11324914
231	0x3d530923	0.051522385
232	0x3e659162	0.2241874
233	0xbe3d04ad	-0.18458815
234	0xbe176ed8	-0.14788377
235	0xbe26ff5e	-0.16308352
236	0x3d6cd377	0.057818856
237	0xbd97e927	-0.07417517
238	0xbe52e6e0	-0.20595884
239	0xbe26ef86	-0.16302308
240	0x3cfb31f4	0.030663468
241	0x3e7146e1	0.23562194
242	0x3c0fa2a0	0.0087668
243	0xbdd4ba80	-0.103871346
244	0x3e1ee0bf	0.15515421
245	0x3dceb1f2	0.10092534
246	0xbd7210b1	-0.05909795
247	0xbe4927f1	-0.19644143
248	0xbc0192e9	-0.007908561
249	0x3e206da0	0.15666819
250	0x3da5642c	0.08075747
251	0xbd8f8db6	-0.07009451
252	0x3e9bf369	0.30459145
253	0x3dde1f0b	0.10845765
254	0x3e0c9654	0.1372922
255	0x3da586f8	0.08082384

fc3.bias f4 [10]
0	0xbb8dc1f6	-0.0043261005
1	0xbe03daea	-0.12876478
2	0x3ce2a09e	0.027664479
3	0x3d9ef085	0.07760719
4	0xbdd67e16	-0.10473268
5	0xbdae5fd7	-0.08514374
6	0xbaa4f689	-0.001258568
7	0xbe053c98	-0.13011396
8	0xbd0b009a	-0.03393612
9	0x3c494bec	0.012286168
